…
/people/leeh736/.conda/envs/pytorch/lib/python3.10/site-packages/torch/cuda/__init__.py:146: UserWarning:
NVIDIA A100-PCIE-40GB with CUDA capability sm_80 is not compatible with the current PyTorch installation.
The current PyTorch install supports CUDA capabilities sm_35 sm_50 sm_60 sm_61 sm_70 sm_75 compute_75.
If you want to use the NVIDIA A100-PCIE-40GB GPU with PyTorch, please check the instructions at https://pytorch.org/get-started/locally/

  warnings.warn(incompatible_device_warn.format(device_name, capability, " ".join(arch_list), device_name))



AAE3dModel(
  (encoder): Encoder(
    (conv): Sequential(
      (enc_conv1): Conv1d(3, 64, kernel_size=(5,), stride=(1,))
      (enc_relu1): ReLU(inplace=True)
      (enc_conv2): Conv1d(64, 128, kernel_size=(3,), stride=(1,))
      (enc_relu2): ReLU(inplace=True)
      (enc_conv3): Conv1d(128, 256, kernel_size=(3,), stride=(1,))
      (enc_relu3): ReLU(inplace=True)
      (enc_conv4): Conv1d(256, 256, kernel_size=(1,), stride=(1,))
      (enc_relu4): ReLU(inplace=True)
      (enc_conv5): Conv1d(256, 512, kernel_size=(1,), stride=(1,))
    )
    (fc): Sequential(
      (0): Linear(in_features=512, out_features=256, bias=True)
      (1): ReLU(inplace=True)
    )
    (mu_layer): Linear(in_features=256, out_features=10, bias=True)
    (std_layer): Linear(in_features=256, out_features=10, bias=True)
  )
  (generator): Generator(
    (model): Sequential(
      (gen_linear1): Linear(in_features=10, out_features=64, bias=True)
      (gen_relu1): ReLU(inplace=True)
      (gen_linear2): Linear(in_features=64, out_features=128, bias=True)
      (gen_relu2): ReLU(inplace=True)
      (gen_linear3): Linear(in_features=128, out_features=512, bias=True)
      (gen_relu3): ReLU(inplace=True)
      (gen_linear4): Linear(in_features=512, out_features=1024, bias=True)
      (gen_relu4): ReLU(inplace=True)
      (gen_linear5): Linear(in_features=1024, out_features=84, bias=True)
    )
  )
  (discriminator): Discriminator(
    (model): Sequential(
      (dis_linear1): Linear(in_features=10, out_features=512, bias=True)
      (dis_relu1): ReLU(inplace=True)
      (dis_linear2): Linear(in_features=512, out_features=512, bias=True)
      (dis_relu2): ReLU(inplace=True)
      (dis_linear3): Linear(in_features=512, out_features=128, bias=True)
      (dis_relu3): ReLU(inplace=True)
      (dis_linear4): Linear(in_features=128, out_features=64, bias=True)
      (dis_relu4): ReLU(inplace=True)
      (dis_linear5): Linear(in_features=64, out_features=1, bias=True)
    )
  )
)
Having 800 training and 200 validation samples.









Train Epoch: 1 [32/800 (4%)]    Loss_d: 0.551895    Loss_eg: 49.293213  Time: 1116.517
Train Epoch: 1 [64/800 (8%)]    Loss_d: 0.375362    Loss_eg: 30.693209  Time: 0.013
Train Epoch: 1 [96/800 (12%)]   Loss_d: 0.654449    Loss_eg: 26.188126  Time: 0.012
Train Epoch: 1 [128/800 (16%)]  Loss_d: 0.332529    Loss_eg: 20.292343  Time: 0.012
…
